Project1/model.pth (torch, 89431 bytes, 6 tensors)

layer1.weight f4 [128, 37]
000000 a1 0a 9c be 70 7c be bd 50 93 19 3d e6 1f 60 3e
       -0.3047686 -0.09301078 0.037494004 0.21887168
000010 16 c4 49 bd 84 75 ba bd 0e 38 d4 bc 2b 55 0c 3e
       -0.049259268 -0.091044456 -0.025905635 0.13704364
000020 ee 99 2a bd 25 df 23 3e 88 c4 d3 3d 26 e1 3a be
       -0.041650705 0.16003092 0.1034022 -0.1824995
000030 17 7d 36 be ac 75 9a be 91 3b 65 be cd b0 e3 bc
       -0.17821155 -0.30167902 -0.22386004 -0.027794266
000040 23 98 11 3e 64 14 b4 bd e4 b8 1d bd c3 59 1c bd
       0.14218192 -0.08792952 -0.038506404 -0.03817154
000050 37 24 dd 3d 6a ba 83 3d b0 db 57 3d 35 75 a0 bc
       0.10797923 0.0643204 0.052699745 -0.019587139
000060 7e e5 65 be fd d7 ea 3d 95 95 21 bd 42 f7 2a be
       -0.22450826 0.11466978 -0.039449293 -0.16695884
000070 45 2a 02 3a f1 c3 9a be 61 89 1e be 80 03 00 3e
       0.0004965405 -0.30227616 -0.15482093 0.12501335
000080 5f ae 3a be 12 f7 01 3d 0c f8 8d be 69 ad d6 bd
       -0.1823058 0.031729765 -0.27728307 -0.10482294
000090 d4 c7 92 bd 13 b1 e2 3d 34 8e 58 3c ed dd b7 3d
       -0.071670204 0.110689305 0.013217498 0.08977876
0000a0 c6 53 eb 3d ca 4c ff bc 83 72 85 3e d5 ab e1 be
       0.11490588 -0.031164546 0.26063928 -0.4407641
0000b0 a7 50 ab be 7a 74 03 bf 26 05 00 c0 91 85 84 3c
       -0.3345997 -0.51349604 -2.0003142 0.01617697
0000c0 4d 27 68 3d 91 1e b3 bc c0 0b b9 3d ed 89 7f 3d
       0.056678105 -0.021865161 0.09035444 0.062387396
0000d0 c2 de df bb 4f 9b 88 3d c9 a1 fd 3d 8b 9b 6a 3d
       -0.0068319747 0.06670248 0.12384374 0.057277244
0000e0 82 f4 14 3e f5 a7 9f bd 01 05 f1 bd dc f2 ac bd
       0.14546397 -0.07795707 -0.117685325 -0.08444759
0000f0 20 62 b2 3d c2 2b e0 3d b5 49 ac bd 76 50 ba 3d
       0.08710122 0.10945846 -0.08412496 0.09097378
000100 d1 4e 9d bc 78 e2 66 3b 7b 81 92 3d 12 67 d1 3c
       -0.019202622 0.00352302 0.07153603 0.025561843
000110 36 6c 88 3d d9 b6 14 3e 06 cb 37 3e e9 0f d2 3d
       0.066612646 0.14522876 0.17948541 0.10256941
000120 d8 f3 f7 38 12 c7 16 3c a3 e6 23 3e 05 f7 81 bc
       0.00011823297 0.0092027355 0.1600595 -0.015864858
000130 7c 4e 20 3e eb f6 a0 be 41 4e 41 3e 25 b3 b7 be
       0.1565494 -0.31438383 0.18877508 -0.35878864
000140 73 15 b6 be 15 4f c8 3e ae d2 7e bd 4a c2 db bd
       -0.3556324 0.39122835 -0.06221264 -0.10730417
000150 fe 61 20 bd c7 00 54 be 8e fe fc 3c 0c 33 bb 3d
       -0.039155953 -0.20703422 0.0308831 0.09140596
000160 24 43 c9 bd a2 98 86 bd 82 c8 9e bd 9b 90 63 3e
       -0.09827259 -0.06572081 -0.077530876 0.22223131
000170 46 6a e7 bc 08 4b 24 3e 35 34 88 3b 13 20 17 be
       -0.028248917 0.16044247 0.004156614 -0.14758329
000180 04 59 47 be f7 85 f4 3d c4 db 73 be 40 68 2a be
       -0.1946755 0.11939614 -0.23814303 -0.1664133
000190 55 06 98 3e 41 39 73 3d 6b 31 80 be ea 71 5f 3e
       0.2969233 0.059380773 -0.25037703 0.21820799
0001a0 21 6b 2b be d4 7d cb bd d3 b9 69 be 45 28 20 bd
       -0.16740085 -0.09936109 -0.22824793 -0.039100904
0001b0 1b 12 95 be cd c9 04 bc 9a d9 0c ba 18 50 2b 3e
       -0.29115376 -0.008104754 -0.00053730013 0.16729772
0001c0 ba cb d8 be 38 d0 99 3e 4b fa 64 bd cb e9 ff be
       -0.4234293 0.3004167 -0.05590276 -0.49983057
0001d0 ac 2d 07 be b9 6c 5f 3d 8b 33 bf 3a 98 98 a7 3e
       -0.13201016 0.054547045 0.0014587505 0.32733607
0001e0 7b fd 63 3e bf ad 08 3e a6 c3 93 bd d1 2a 30 bd
       0.22264664 0.13347529 -0.07215051 -0.043009583
0001f0 0f c7 2a bd 85 50 ac be d9 d5 2b bd 24 d0 bc bc
       -0.041693743 -0.33655182 -0.041951988 -0.023048468
000200 cb 47 ce bd cf 2f 0d 3d b2 27 5c bc d1 2d 59 b9
       -0.10072287 0.034469422 -0.0134371985 -0.000207118
000210 2e 3b cb bd 74 a6 92 3d 29 89 f5 3d 52 38 87 bd
       -0.09923397 0.07160655 0.11989052 -0.06602539
000220 bc 7d a5 3d f4 63 c9 bd 0b 0e 38 3d af e7 58 3e
       0.080806226 -0.09833518 0.044935267 0.2118213
000230 ff 02 7e 3e e6 4b 1b 3e 42 a5 ae 3e 88 7f 4a be
       0.2480583 0.15165672 0.34110457 -0.19775212
000240 b6 b5 e7 bd a9 b8 4b be 4f 9b 03 bd b4 22 fc bb
       -0.113139555 -0.19894661 -0.032130536 -0.0076945666
000250 e8 79 87 be 01 f4 36 be f4 eb 16 bd a1 0f 0c be
       -0.26460195 -0.17866518 -0.036846116 -0.13677837
000260 66 5c 96 be 41 db 7e be b5 21 6f 3e 28 78 db 3d
       -0.2936737 -0.24888326 0.23352702 0.10716277
000270 27 fe 36 3e 22 55 e7 be 67 de 01 bc 71 f6 03 be
       0.17870389 -0.4518214 -0.00792656 -0.12886979
000280 64 6a 81 bc 4e e7 ad bd f2 ad dd be dd 52 88 be
       -0.015797801 -0.084913835 -0.43296772 -0.2662572
000290 d8 d2 a3 bc 20 d6 58 3d a7 d4 66 bd 7a f5 3e 3d
       -0.019998 0.05293858 -0.056355145 0.046620823
0002a0 dd 95 21 be e3 38 8f bc 08 dd 2e 3e b2 e5 16 be
       -0.15779825 -0.01748318 0.17076504 -0.1473606
0002b0 11 c9 ff bc 33 ee 1f bd f3 a8 ef bd e5 09 5d 3e
       -0.031223806 -0.039045524 -0.117021464 0.21585806
0002c0 db c9 89 bd 28 d3 96 bf 2f 72 f7 3d 63 9c 53 3d
       -0.06727954 -1.178319 0.12082326 0.051662814
0002d0 d7 43 bf 3c f4 54 cc be bf 2d 3b 3e 63 f8 05 3e
       0.023347778 -0.39908564 0.1827917 0.13083033
0002e0 d8 e5 6f 3d 07 d6 64 3d 8d d9 fc be ba 49 81 3d
       0.058568805 0.055868175 -0.49384728 0.0631289
0002f0 bd 9f 10 bd 52 b8 db bb 26 3c 9d 3d b1 85 6b 3e
       -0.03530859 -0.0067053223 0.07677488 0.23000218
000300 e0 4f 37 be 21 c1 e7 3d a2 a5 f1 be a1 86 3d be
       -0.17901564 0.11316133 -0.4719668 -0.18508388
000310 21 18 ad be aa e0 21 3e 98 5a bb bd da 65 53 3c
       -0.3380747 0.15808359 -0.09148139 0.012902701
000320 c7 0c 66 bc a3 01 80 be 51 c9 7b 3d 58 bf d3 be
       -0.014041132 -0.2500125 0.061471287 -0.4135692
000330 59 14 06 bf c8 25 52 3e 84 56 46 3d 13 9c 4c 3d
       -0.523748 0.20522225 0.04842235 0.04995353
000340 99 bf 7a be 0a 62 a0 be 82 3d aa bd 3e d8 31 3e
       -0.24487151 -0.31324798 -0.08312513 0.17367646
000350 ab 74 fd bd 43 b7 2c be 5d a8 cb be c9 6c b5 3c
       -0.12375768 -0.16866784 -0.39776888 0.0221466
000360 08 37 de bd c2 d6 cd bd ac 20 16 be 49 f7 17 bf
       -0.1085034 -0.100507274 -0.14660901 -0.593617
000370 4b 11 c7 3d d4 9a af 3c 65 96 37 3b 41 ee 27 3d
       0.09720095 0.021436132 0.0028013226 0.0409987
000380 8e b8 8f bd af 1b dd 3d 2d 17 80 be 26 0e 4a 3d
       -0.07017623 0.10796296 -0.25017682 0.0493299
000390 eb 87 bf 3c de 45 54 bd 3b 03 df bd 10 3c 86 3d
       0.02338024 -0.051824443 -0.10889288 0.06554425
0003a0 96 e6 52 bc cd 93 7e 3e 4d 8c 8d 3e 04 76 97 be
       -0.012872359 0.24861069 0.27646104 -0.29582226
0003b0 12 6c 05 3f e6 83 4b be 02 06 10 bc e5 b8 a2 3d
       0.5211803 -0.19874534 -0.008790495 0.07945422
0003c0 ea 61 08 3e 7e 59 5a 3e 61 e8 8e bd a9 c5 d7 3c
       0.13318601 0.21323201 -0.069779165 0.026339369
0003d0 b1 db 0b 3d 7f 11 ce 3c ad e0 25 3e a0 9a 6d be
       0.03414506 0.025154827 0.16198988 -0.23203516
0003e0 c9 02 d7 3d ff 4a 6d bc db a2 b1 bd 26 24 19 3e
       0.10498578 -0.0144832125 -0.0867364 0.14955196
0003f0 08 3a 74 3b 55 e1 0b 3b 4f a6 52 bd 0a 9d 95 3d
       0.0037266035 0.0021344025 -0.051428135 0.073053434

layer1.bias f4 [128]
000000 5d 91 c4 bd d1 fc 99 3d b7 0d d6 bd 44 ed c4 bc
       -0.09598038 0.07518924 -0.10451835 -0.024038918
000010 40 17 4c bd fe ee f9 bd 75 ba ea 3d 44 bf e1 bc
       -0.04982686 -0.12203787 0.11461345 -0.027557023
000020 ed 59 08 be 18 e0 0f 3e f9 80 26 bd bf 1b ba bd
       -0.13315554 0.14050329 -0.04065034 -0.090873234
000030 f4 66 83 bc d4 82 e5 3c 0c 9a 86 be 7f de 78 bd
       -0.016040303 0.028016485 -0.26289403 -0.060759064
000040 ab 4f c3 3c c3 4b 7c 3d b2 2d 0a be 49 b0 f5 3c
       0.0238417 0.06159569 -0.13493994 0.029991286
000050 fa af 48 be a0 53 06 3e ef 1b 13 3e 03 cf 2c bd
       -0.1959838 0.13117838 0.14366125 -0.04218961
000060 7e b0 0c bc c4 89 e9 3d 05 76 45 3e 76 ff 70 3d
       -0.008587001 0.1140323 0.19283302 0.058837377
000070 0b c0 a7 bd d4 6d 29 3b e3 02 07 3e b5 fe 5f 3d
       -0.08190926 0.0025852816 0.13184695 0.054686267
000080 f9 72 23 be b0 24 71 3d 10 e0 1a 3e b5 59 46 be
       -0.15961827 0.05887288 0.15124536 -0.19370158
000090 34 73 0d bc 0d 08 a0 3d 2b 40 a2 3c 59 b7 ab bc
       -0.008633424 0.078140356 0.019805988 -0.02096145
0000a0 f4 4e ac bd 83 1a e9 3d 22 00 fc 3d 0a 9e 7e 3c
       -0.084134966 0.1138201 0.12304713 0.015540609
0000b0 a9 d3 01 3d 0f a8 a0 bd 9b 94 f6 3b 36 d3 54 be
       0.031695995 -0.07844555 0.0075250394 -0.20783696
0000c0 e3 93 16 be be 18 99 3c 3f fa ad 3d a3 e4 9c bd
       -0.14704852 0.018688556 0.08494996 -0.076607965
0000d0 76 19 08 3d 5f 7f f9 3d 30 ce 08 bd 5d 07 96 3d
       0.033227406 0.12182497 -0.03339976 0.07325623
0000e0 b3 22 d7 bb 8b 97 f5 3c 00 f5 86 3d dc 5e 04 3c
       -0.0065654158 0.029979488 0.06589699 0.008079257
0000f0 96 ae 33 be 3b 3e 8c 3d 55 f4 be 3b fc 64 81 bd
       -0.17547068 0.06847807 0.0058274665 -0.06318089
000100 cb d1 c7 3d 27 6f d2 3d c5 95 22 3d d5 89 d3 bc
       0.09756812 0.10275107 0.039693613 -0.02582256
000110 f9 cc fc bd 54 9e 58 bd 99 3e 0d bd e8 60 6b bd
       -0.12343783 -0.05288537 -0.034483526 -0.057465464
000120 eb cb c3 3d 2c c3 37 be 87 57 62 bd db 5f 80 bd
       0.09560379 -0.17945546 -0.055259254 -0.06268283
000130 23 a0 1e 3e cf b4 01 be 53 8b 11 3e 37 de fb 3c
       0.15490775 -0.12666629 0.14213304 0.030745609
000140 95 72 0e 3d 99 6d 26 bc 07 eb a6 bc 2f 80 df bd
       0.034777243 -0.010157966 -0.020375742 -0.10913121
000150 82 70 20 3d f0 b5 1d 3e 57 3d 05 3e 6e 52 2a be
       0.039169796 0.15401435 0.1301168 -0.16633007
000160 90 af da bd 3b 5e a9 3d 15 32 02 3e ed 93 07 bc
       -0.10678017 0.08269926 0.12714417 -0.008275014
000170 a4 25 55 be e4 cd 0c be 83 69 3b bd 26 26 91 3d
       -0.2081514 -0.13750416 -0.04575492 0.07087354
000180 1b bc a6 bc 27 d9 0b be 29 a6 b7 bd 4c 95 e4 3d
       -0.020353368 -0.13657056 -0.089672394 0.111612886
000190 44 a9 45 be 35 36 18 be 19 5d 14 3d d3 ec 12 3e
       -0.19302851 -0.14864428 0.036221597 0.14348154
0001a0 cd b4 12 be 64 c5 72 be 90 eb b9 bd e7 27 da bb
       -0.14326783 -0.23708111 -0.09078133 -0.0066575888
0001b0 4b e6 59 be 97 f5 d9 3b 6e 92 92 3e 55 58 92 bd
       -0.21279256 0.006651591 0.28627342 -0.07145754
0001c0 64 89 d3 bd a3 d8 dc bd 50 c3 19 3e aa 99 01 3e
       -0.103289396 -0.10783508 0.15015912 0.12656274
0001d0 82 0b f2 3d 58 52 8a 3d 46 7c 10 bd 05 6e 54 3d
       0.11818601 0.06753987 -0.035274766 0.051862735
0001e0 39 2d ee b8 d7 d0 a2 3c 55 19 d9 bc 16 09 7a be
       -0.00011357148 0.019874973 -0.026501337 -0.24417529
0001f0 68 a7 d9 bd 35 f8 e1 bc 4b 80 01 3e 60 c8 fc bd
       -0.10627633 -0.027584175 0.12646596 -0.12342906

layer2.weight f4 [128, 128]
000000 33 dc 92 bd af 21 5f bd 08 93 04 be 12 48 42 3d
       -0.07170906 -0.054475483 -0.12946713 0.047432013
000010 4e 77 54 3d 89 93 52 bc d7 c5 d1 3d e1 b2 e5 3b
       0.05187159 -0.012852558 0.10242813 0.0070098494
000020 40 59 58 3d e0 5c 33 3e 49 8e b9 3e 2e c4 00 bd
       0.05281949 0.17515898 0.36241367 -0.03143709
000030 47 23 c6 bb cb 87 c1 bc 5b 46 db 3c b7 72 04 bb
       -0.006046686 -0.023624321 0.026766947 -0.0020209977
000040 2a 89 88 3c 56 4a 1d 3b 9e fe f4 bc 00 37 8b bd
       0.016666967 0.0024000606 -0.029906567 -0.067976
000050 40 a2 01 3c 44 2e 0e 3e af 97 c3 3c 30 38 b0 bd
       0.007912219 0.13884836 0.02387604 -0.08604467
000060 4d aa 88 3d 72 79 87 3d f8 50 6f 3d 15 04 a0 3d
       0.06673107 0.06614961 0.058426827 0.078132786
000070 7b bd db bd 05 0c 37 3e 3f 4b 31 be 6e b5 85 3c
       -0.107295 0.17875679 -0.1731386 0.016321864
000080 9c 0a 53 3c 4a 15 1e 3c 71 b1 7e 3d 2f 1a 82 bd
       0.012880947 0.00964863 0.06218094 -0.063526504
000090 cb 81 84 3d f5 5e 6d bd fc e6 c4 bd 6d 07 89 3d
       0.064700685 -0.057951886 -0.09614369 0.066908695
0000a0 7a a1 22 3c 84 9c 3d bd 0e 86 af bd 38 ab 2f bd
       0.009926194 -0.046291843 -0.08570491 -0.042887896
0000b0 65 78 12 bc dc b7 ee bb 1f 6b cf 3c 5d 02 9f bd
       -0.008939837 -0.0072851013 0.025319634 -0.07764123
0000c0 e9 02 f4 bb 06 14 ad bd 7b e7 b4 3d 16 9a e5 bd
       -0.007446636 -0.08451085 0.08833214 -0.1121103
0000d0 ee 18 5c bd c5 e3 ea 3d 38 65 1b bb 39 64 5f 3e
       -0.053734712 0.11469225 -0.0023711454 0.21815576
0000e0 88 f3 83 bc 96 20 ea bc 30 78 38 3d 8e fd 23 3d
       -0.016107336 -0.028579991 0.045036495 0.04003673
0000f0 6b 1d 98 3d fd 5c 44 3d 17 43 44 3c 00 b6 e6 3c
       0.07427486 0.047940243 0.011978886 0.028162956
000100 f6 23 a6 3d 17 f1 84 3d de b5 7d 3c 37 8e 01 be
       0.08112328 0.06491297 0.015485255 -0.12651907
000110 8b 9e d1 bd 00 34 26 3d bd ca f2 3d 51 8e e5 3c
       -0.10235318 0.040576935 0.118550755 0.028021963
000120 13 16 82 3d 6c 51 9a bd a0 23 fa 3c b3 4c 19 bd
       0.063518666 -0.07535061 0.030534565 -0.03742666
000130 63 7a e1 ba 6a b0 70 bd 42 ec fb 3d b6 e8 b4 3d
       -0.0017202612 -0.05876199 0.12300922 0.088334486
000140 f0 b0 c7 3d 6a c8 55 bc fe cd de 3d 86 f8 2e bd
       0.09750545 -0.013048271 0.10879134 -0.04271748
000150 5f 18 8f 3d 60 53 10 3d 57 80 07 3d d4 f3 9f bc
       0.0698707 0.035235763 0.03308138 -0.019525446
000160 a7 3a d1 3c 00 b0 9e 3d 8e 53 b4 3c b5 e9 dc bd
       0.025540663 0.07748413 0.022012498 -0.107867636
000170 ac 82 a4 bd aa 1f 1c be 56 ff fe 3d 36 34 3b bd
       -0.08032736 -0.15246454 0.12451045 -0.04570409
000180 8d fb 66 3c 4a a7 a9 bc 71 77 a6 bd 20 55 0e 3c
       0.01409806 -0.020709652 -0.081282504 0.008687288
000190 07 31 07 3d 61 b1 c5 3c 0e da 0e be c5 9d 41 bd
       0.03300574 0.024132432 -0.13950369 -0.0472696
0001a0 b2 4e 88 3c f1 6f 85 bb 64 be c9 bd dc cc f4 3c
       0.016639087 -0.0040721823 -0.09850767 0.02988284
0001b0 cf af a7 3d de 9c 8c bd 91 17 32 3e 99 b6 9b bd
       0.0818783 -0.068658575 0.17391802 -0.07603187
0001c0 36 5d b4 bd f4 4f f5 3d cb 68 88 3d cd ee 24 bc
       -0.08806841 0.119781405 0.06660613 -0.0100667
0001d0 79 4c cf 3d 42 b3 98 3c 48 9f 95 bd 92 40 82 3d
       0.10122008 0.018640164 -0.07305771 0.06359972
0001e0 81 6c 99 3d a8 1f 1c be 13 a3 5a 3c 85 3f e2 bc
       0.074913986 -0.15246451 0.013344544 -0.02761818
0001f0 7f 64 16 3d f1 da 0a bd 96 4c 47 bb fe ba a0 3b
       0.036716934 -0.033900205 -0.003041064 0.0049051037
000200 2a 01 40 3d a7 7d 15 3e 8b 35 26 be f5 ea 46 be
       0.04687611 0.14598714 -0.16231363 -0.19425566
000210 db 71 9a bd a9 8c 6b 3d a6 29 9e bd ac 27 42 be
       -0.075412475 0.05750719 -0.077227876 -0.18960446
000220 7c 68 d3 3d 98 ce ac bc ed 3b 8e bc 25 78 ac 3d
       0.10322663 -0.021094605 -0.01736256 0.08421353
000230 82 d3 75 bd 61 51 cf bd 4d f1 47 3d 4b 30 91 3d
       -0.060016163 -0.10122944 0.048814107 0.07089289
000240 7d 7f ab bd 8d 90 3b 3e ae 98 0c be 92 15 ee 3d
       -0.08373926 0.1831686 -0.13730118 0.11625208
000250 7d a6 aa 3d 36 21 ce bd 05 42 ef 3d 4d 46 77 3e
       0.08332536 -0.10064928 0.11682514 0.24147911
000260 4f cd c5 bd 4d a5 a8 3d ba 31 a7 3d 80 3a c7 3d
       -0.096583 0.082346536 0.081637815 0.09727955
000270 b4 e3 04 3e 6f 5e 05 3e e5 d8 b0 bd 11 e2 b5 3d
       0.12977487 0.13024305 -0.08635119 0.08881009
000280 37 d4 a0 be f3 2b a8 3c 24 8f 48 be 7a dc 64 3d
       -0.31411907 0.02052877 -0.19585854 0.055874325
000290 ea 9e ba bd a1 d6 86 bd 6c ef 5e be 8a 3d 4b be
       -0.09112342 -0.06583906 -0.2177102 -0.19847694
0002a0 9f a1 99 3d 77 af 0d 3d b5 3d ed bd 24 39 b1 3b
       0.0750153 0.034591164 -0.11584035 0.005408423
0002b0 7e 67 18 3d 1c a5 9b 3e b5 ef 8d 3c 61 f7 08 be
       0.037208073 0.30399406 0.017326215 -0.13375618
0002c0 dd cb 2b be 14 d4 35 3d 0b ba 62 3e c6 9f 35 3d
       -0.16776986 0.044391707 0.22141282 0.044341825
0002d0 8b c3 76 3e 67 a9 16 3e e9 4e be 3d 07 f8 6b 3e
       0.24098031 0.1471306 0.09292395 0.23043834
0002e0 f8 b0 43 3b db ee d4 bc b3 0a f4 3d 25 7a ec 3d
       0.002986012 -0.025992801 0.11916103 0.11546735
0002f0 bd b9 2c bc e7 cf 43 3c fb 35 a0 bc b4 47 d2 3d
       -0.01054233 0.011951423 -0.01955699 0.102675825
000300 46 7d 6b be 73 cd 24 3e a1 16 27 3e 60 0d 4b 3d
       -0.22997007 0.16093998 0.16317226 0.049573302
000310 27 1c ba bd e3 89 0d bd 31 7e b0 bd eb 9e cb bd
       -0.09087401 -0.034555327 -0.08617819 -0.099424206
000320 3d a1 bc bd 1d 6c 89 3d 1d 74 18 3c 7a 54 a1 bd
       -0.09210441 0.06710074 0.009305027 -0.07877441
000330 0f 9c 81 3d f2 b9 1e be b0 b0 2a be 12 14 97 3d
       0.06328594 -0.1550062 -0.16668963 0.07376875
000340 0d e7 eb bd 95 ff 01 be 5a 8b ec bc 9c c4 27 bc
       -0.11518679 -0.12695153 -0.028875042 -0.010239746
000350 f0 39 52 be 36 90 50 be f8 48 15 3d a2 53 dc bd
       -0.20529914 -0.20367512 0.03644654 -0.10758139
000360 46 a6 d7 3d 1b bd 5e bd 94 dc 6d 3e b0 43 5e bb
       0.10529761 -0.054379564 0.23228675 -0.0033914857
000370 e1 9f 1c be 97 0a a1 3e 64 51 aa bd 05 e4 06 3e
       -0.15295364 0.31453392 -0.08316305 0.1317292
000380 6e 85 dd bc d3 69 49 be 3f 5a 96 bd 57 f9 63 bd
       -0.027041163 -0.19669275 -0.07341432 -0.05565771
000390 18 d9 a9 3d 47 6e de 3d 74 2f 63 3e cf da 94 3d
       0.082933605 0.108608775 0.2218607 0.07268297
0003a0 b4 39 4c 3e 5a 01 2d be d6 dd 46 bc f3 de 7a 3d
       0.19943887 -0.16895047 -0.012137851 0.061247777
0003b0 81 f3 a5 be 7a 51 09 3e de f3 cb bd b9 fa 4f be
       -0.3241234 0.13409987 -0.09958623 -0.20310487
0003c0 2e c0 aa be 13 e9 10 bd b3 82 8c bd be 0a 50 be
       -0.33349746 -0.035378527 -0.068608664 -0.20316598
0003d0 c6 8e f4 bc df 24 0b 3c 17 06 54 3e 70 40 5d bd
       -0.029853236 0.0084926775 0.20705448 -0.05401653
0003e0 17 f6 af bd 5f 28 cf 3d dc d1 79 be 14 2d bf bd
       -0.0859186 0.10115122 -0.24396461 -0.0933477
0003f0 fe 2d 43 be 59 6e 89 3d 02 64 14 3e 69 4b 09 be
       -0.19060513 0.067105 0.14491275 -0.13407673

layer2.bias f4 [128]
000000 95 be 07 3f e7 38 0e be 0d 05 cb 3c c1 a2 b0 3d
       0.5302518 -0.13888894 0.024782682 0.08624793
000010 87 ea 08 be 25 4a b3 3e a8 60 14 3d 7a fc 1a 3a
       -0.13370715 0.35017505 0.03622499 0.0005912256
000020 31 7f 94 bc 16 93 36 3e 35 a0 e5 3d e3 b0 3b bd
       -0.018127056 0.17829546 0.11212198 -0.04582299
000030 3f c4 8d 3a 26 69 a5 bc 7c 4c 60 3d 28 59 8c bd
       0.0010815932 -0.02019174 0.05476044 -0.06852943
000040 4d 5e 2e be f8 e0 de 3c 34 a9 67 be 66 fa 15 be
       -0.1702816 0.027206883 -0.2262314 -0.146463
000050 c7 a7 c9 bd 21 ff cb bc 64 8b 95 bd 19 e6 12 bc
       -0.09846454 -0.024901928 -0.07301977 -0.008965992
000060 74 ce a4 3d 65 d9 40 3d bc 3d 02 be 5a d7 49 3e
       0.0804719 0.047082324 -0.12718862 0.19711056
000070 64 40 4b bc 82 d0 d7 3d e3 6e 02 be 72 14 8b 3c
       -0.012405489 0.105378166 -0.12737612 0.016977523
000080 77 9c 16 3b 39 11 77 3d 07 52 1f 3c 0a b7 00 3e
       0.0022981444 0.06031916 0.009724147 0.12569824
000090 62 74 59 3e 0f b7 be bb 37 c3 7e bc 76 e4 88 bc
       0.21235803 -0.005820162 -0.0155494725 -0.016710501
0000a0 43 f3 7b 3c d8 bb d3 3d 16 6c eb bb 58 2f 05 bd
       0.015377822 0.10338563 -0.0071845157 -0.032515854
0000b0 f9 06 a8 bd 62 25 55 3e b8 e8 41 3b ae 32 0c 3f
       -0.08204455 0.20815042 0.0029588174 0.5476483
0000c0 c8 46 cd 3e 2c 1a 4a be 6b 63 90 3e e9 35 dd bd
       0.40093064 -0.19736546 0.2820085 -0.10801298
0000d0 8c 35 70 bd 59 55 83 bd 67 63 4b 3e 7c af 85 bd
       -0.058644816 -0.06412763 0.19862138 -0.065276116
0000e0 b5 6b 81 bc 01 6b 10 bd 68 01 a3 3d f9 31 9b 3d
       -0.015798429 -0.035258297 0.079592526 0.07577891
0000f0 f6 7a e5 3b 00 7a b2 3d 09 50 2a be d3 bc bb bd
       0.0070031835 0.08714676 -0.16632093 -0.09166875
000100 02 9e 36 3e 59 82 82 3c 22 8c 27 bd 79 46 ef bd
       0.17833713 0.015931295 -0.040905125 -0.116833635
000110 5e 63 2b 3e 30 a4 9c bd 36 dc 22 3e 13 ce ba bd
       0.16737124 -0.07648504 0.15904316 -0.09121337
000120 30 7c ab 3d d1 c9 03 3f e8 97 59 bc 13 65 b6 3d
       0.08373296 0.5147982 -0.013280846 0.08905997
000130 e4 82 11 3d 80 12 d6 3a dc 4b 46 be 37 f0 9b bd
       0.035525218 0.0016332418 -0.19364876 -0.07614177
000140 cf 25 1a be cd 53 e8 bd cb fe 1b 3f b3 a7 cb bd
       -0.15053485 -0.11344109 0.6093566 -0.099440955
000150 8a ae 31 bc c2 e3 55 be d1 0d b5 bc 49 7e bc bc
       -0.010844836 -0.20887664 -0.022101315 -0.023009436
000160 1c c9 06 3e be 07 af 3d 75 d2 4e 3d 41 99 a5 bc
       0.13162655 0.085463986 0.050493676 -0.020214679
000170 3b 1b 1a 3c ea 56 60 3d 27 f9 21 be 7d ef 97 bd
       0.009405906 0.054770388 -0.158177 -0.07418726
000180 53 66 07 3c 19 b2 ad bd d1 c9 c4 bb e8 0e b5 bb
       0.008264142 -0.08481235 -0.0060055037 -0.0055254586
000190 03 19 db 3e 29 7b 0c 3c 02 e5 ee bd 2d 86 47 be
       0.4279252 0.008574286 -0.116647735 -0.19484778
0001a0 ff 4a 28 bd e6 80 9d 3d 24 a5 95 bb 19 8f 13 3f
       -0.041087147 0.07690601 -0.0045668054 0.57640225
0001b0 14 a7 ac bd 43 de 09 be e8 88 b0 3c a6 06 ca bd
       -0.08430305 -0.13463692 0.021549657 -0.09864549
0001c0 a6 84 42 3d 91 d4 d9 3d 73 1b 82 bd bb 55 cd bc
       0.047489785 0.10636247 -0.06352892 -0.025065294
0001d0 be dc 93 bd ef c5 bf 3c b7 c4 b8 bc e4 df a1 3c
       -0.072198376 0.023409812 -0.022554738 0.01976008
0001e0 c4 d5 52 3d 3a 04 18 3e e3 31 2b 3c 9a 90 27 bd
       0.051473394 0.14845362 0.010448906 -0.040909387
0001f0 d4 bd df bd 11 5e 90 bd 15 d2 fb bd 3e 36 13 be
       -0.10924879 -0.07049192 -0.12295929 -0.1437616

layer3.weight f4 [4, 128]
000000 fb 15 14 3e 61 a1 14 be 5b e0 4b 3e 89 a9 22 3d
       0.1446151 -0.14514686 0.19909804 0.039712463
000010 73 7a 1f 3d 2a b6 0a 3e 4c b7 f2 bc 4c fc a6 bd
       0.038935136 0.13546053 -0.029628418 -0.081535906
000020 48 a9 cc 3d 79 c2 57 3c c7 c7 4d 3e 18 98 ac be
       0.09993225 0.0131689245 0.2009574 -0.33709788
000030 ba cd 9a 3c fb 9a c9 be 2f 75 a4 3e dc 53 7d 3e
       0.018896926 -0.39376053 0.32120654 0.24739021
000040 50 a8 d6 bd 57 aa 84 3e 5f d6 28 be 16 73 d6 bd
       -0.10481322 0.2591121 -0.16488026 -0.1047117
000050 8a 10 22 bd 9d 3c 71 bd a5 4c 19 be 38 a7 55 be
       -0.039566554 -0.058895696 -0.14970644 -0.2086457
000060 72 67 ba 3d d6 d7 d1 3d d6 af b4 3d e6 b0 cd 3d
       0.09101762 0.102462456 0.088226005 0.10043506
000070 fe 13 b7 bc 49 54 0b 3d 04 52 ed be 5f 07 de 3d
       -0.0223484 0.034015927 -0.46351635 0.1084125
000080 94 a9 03 3e 09 4b 5c 3e 82 33 41 3d 43 89 27 3e
       0.12857658 0.21512999 0.047168262 0.16360955
000090 15 f4 f4 3d a9 fd 98 be 88 99 de be 25 70 9c 3e
       0.119606175 -0.29881027 -0.4347651 0.3055431
0000a0 db 54 76 bd 46 54 b1 3e 25 63 2f be c8 c4 5a 3d
       -0.06013952 0.34634608 -0.17127664 0.05341032
0000b0 89 70 da 3d fb 41 f0 3d 2e 21 98 3d f9 d5 0c 3e
       0.10665996 0.11731335 0.074282035 0.13753499
0000c0 3e 46 05 3e 25 9b 87 be bc 9f 20 3e e0 48 6a bd
       0.13015077 -0.26485553 0.15685934 -0.057198405
0000d0 45 06 ac bc b0 4b 80 bd 96 14 ad 3d 0d 2d 57 bd
       -0.020999083 -0.06264436 0.08451192 -0.0525332
0000e0 0d 8e 33 bd 80 88 04 3e 1a e0 0c 3d 85 ce 7b 3e
       -0.043836642 0.12942696 0.034393407 0.245905
0000f0 91 47 52 3e 28 6b d0 3e 40 39 0c be 97 2e 99 3d
       0.20535113 0.40706754 -0.13693714 0.074795894
000100 b3 4d 0c 3e 97 7d de 3d e1 e4 4f bd 3e 47 51 3c
       0.13701515 0.10863798 -0.050755385 0.012773333
000110 9b 31 0a 3e b5 9a 0b be 10 be 62 3e 89 08 92 3e
       0.13495485 -0.13633235 0.22142816 0.28522137
000120 03 e6 ce bc 83 de 13 3e d9 e0 36 be 84 f9 16 3e
       -0.025256163 0.1444035 -0.1785921 0.1474362
000130 2f 45 2b 3d 25 7d 19 3e c8 5d ee bd 72 12 1a bf
       0.041814025 0.14989145 -0.11638981 -0.60184395
000140 3c c6 64 3e 39 f4 55 be 7d d3 49 3e 5b f5 05 b8
       0.22341245 -0.20893945 0.19709583 -3.1938176e-05
000150 03 9a 99 3e 18 d8 a4 bd 2c 06 24 3f 9a 44 07 3f
       0.30000314 -0.08049029 0.6407192 0.5283905
000160 e6 c2 8e 3d e2 1d 93 bd 51 c5 c4 3d 47 7e 59 be
       0.06970768 -0.07183434 0.096079476 -0.21239577
000170 c7 2e e1 3d ce 06 9c 3e 11 89 38 be f4 68 89 bd
       0.1099525 0.30473942 -0.18021037 -0.06709471
000180 d2 1f bc bd 27 d5 1f be 04 ea f2 3c 20 06 3d 3d
       -0.09185757 -0.15608655 0.029652603 0.04614842
000190 72 c5 00 3e da a7 eb bc 9b e5 2a 3c f8 97 23 be
       0.1257532 -0.028766561 0.010430719 -0.1597594
0001a0 09 f8 18 be 0a c4 20 bd 7d b5 94 3d a5 29 4b 3e
       -0.14938368 -0.039249457 0.07261179 0.19840105
0001b0 73 50 4f 3e e5 50 5a be 76 8a 4a 3d 09 5b 2d be
       0.20245533 -0.21319921 0.049448453 -0.16929258
0001c0 6a 9e c3 3d 9a e7 25 3e d2 73 2b 3d d2 f8 7e be
       0.095516995 0.1620163 0.0418585 -0.24899605
0001d0 b0 08 0b be a2 cb 91 3d bb 52 93 be 44 ed 0c bd
       -0.13577533 0.07118918 -0.28774056 -0.03440596
0001e0 3e e1 b4 3d 79 81 57 3e 24 f8 8f 3d f3 a0 64 3e
       0.08832024 0.21045484 0.07029751 0.22327022
0001f0 c5 2b 00 3e 38 d4 f6 3d 6b fa 2c be 83 18 bb bd
       0.12516697 0.12052196 -0.16892402 -0.091355346
000200 e4 c8 f5 3d 03 c8 59 bb 07 63 4d 3e 17 b4 c6 bd
       0.120012075 -0.0033230789 0.20057307 -0.09702318
000210 0e c6 1c be 31 75 70 3d 65 17 fc bc d5 26 d7 3c
       -0.15309927 0.058705512 -0.030772874 0.026263634
000220 f6 99 7f 3e 7c f2 6b 3d 04 ba dc 3e 93 af 05 bc
       0.24961075 0.057604298 0.4311067 -0.008159536
000230 17 d6 79 3d 77 bc b1 be be c8 be 3e d7 3f 95 3e
       0.060995188 -0.347141 0.3726253 0.29150268
000240 4c 23 21 bd 90 91 50 3e f1 ee b1 bd 12 00 04 3d
       -0.039340302 0.20368028 -0.086881526 0.03222663
000250 73 76 3b be 3c 0a 15 be d2 96 50 3e 51 2c 91 bd
       -0.18306904 -0.14554685 0.20370033 -0.07088531
000260 38 8e a0 3d 82 0e 56 3e 9a b7 9a bd 44 f9 0a 3e
       0.07839626 0.20903972 -0.075545505 0.1357165
000270 c9 cc 4d bd c9 73 42 3c d7 fc 01 be 38 0f 66 3d
       -0.050244126 0.011868426 -0.12694107 0.056166857
000280 96 12 78 3d 8c e1 39 3e 12 5f 2b 3e b7 50 10 3e
       0.0605646 0.18152446 0.16735485 0.1409329
000290 96 5c 7a 3e 14 fe 33 be 2b 16 bc bd 48 5c ad 3e
       0.24449381 -0.17577392 -0.09183916 0.33859468
0002a0 81 bb 83 be 60 2a 10 3e ae af 23 3e 1f d5 1c 3e
       -0.25728992 0.14078665 0.15984985 0.15315674
0002b0 4c b1 c2 be d7 22 a5 3d 05 fd 87 3d 1e 22 4a 3e
       -0.38025892 0.08063286 0.066400565 0.19739577
0002c0 7b e0 bf 3d 0a 35 14 be 51 d1 2b 3e f4 54 fa 3d
       0.09368988 -0.14473358 0.16779067 0.12223235
0002d0 74 4d a5 be f2 c1 34 be 39 9b c7 3d 59 11 7d ba
       -0.32285655 -0.1765211 0.09746403 -0.0009653769
0002e0 d6 db 55 3c f0 d6 4b 3e 07 d8 c9 bc 1d 3f f8 3e
       0.013052901 0.19906211 -0.024639143 0.48485652
0002f0 7f 00 cc 3e 7d 99 89 3e 52 12 a3 bd 50 d5 98 be
       0.39844128 0.26874915 -0.07962479 -0.29850245
000300 4c 4e 24 3e 66 c1 b2 3d c2 da 87 be 91 38 f7 bc
       0.16045493 0.08728294 -0.26534086 -0.03017834
000310 19 77 97 3d 98 7c b3 bc e8 e1 ab 3e 7b 34 f2 3e
       0.07395763 -0.021909997 0.3357079 0.47305664
000320 01 25 75 3d 1e 5d 22 3e 70 e8 67 3e 79 6f 30 3c
       0.059849743 0.15855834 0.22647262 0.010768765
000330 9c 30 cb bd 78 ce 67 3e bb e2 f0 bd 9f 38 da 3d
       -0.09921381 0.22637355 -0.117619954 0.10655331
000340 1a 14 ca 3d 59 6d 22 bd bd e3 1e 3e 30 c0 1f bd
       0.09867115 -0.039655063 0.15516563 -0.039001644
000350 e9 da dd 3e 88 68 ec bd b5 7e d3 3e 24 11 7d 3e
       0.43331078 -0.11543375 0.41307607 0.2471357
000360 51 a8 dd 3d f7 c1 ba 3d cc 57 2f 3e d8 21 91 3e
       0.108231194 0.09119027 0.17123336 0.28346133
000370 9e 95 bd 3d 29 f8 ae 3e 2e bf 46 bd 29 83 c0 bd
       0.09257053 0.34173706 -0.048522167 -0.09400017
000380 a2 47 37 be 8a c3 16 be 8d 61 2f bd 6b 77 10 3d
       -0.1789842 -0.1472303 -0.04281764 0.035270136
000390 bc 95 a2 3d 78 63 03 be 16 4e d1 3d 51 e0 12 be
       0.07938716 -0.12830913 0.10219972 -0.14343382
0003a0 73 1b 1a be 73 cb 74 bd 18 76 82 3d b7 74 50 3e
       -0.15049534 -0.059764337 0.06370181 0.20357023
0003b0 a0 bc 07 be 61 97 10 be ac 9b 16 3e 0b ae 18 be
       -0.13255548 -0.14120246 0.14707822 -0.14910142
0003c0 9a fe f7 bc 20 d7 08 3e 87 50 5a bd 52 79 87 3d
       -0.03027277 0.13363314 -0.053299453 0.06614937
0003d0 af c3 bb bd 22 f8 0b 3e 09 1f 12 be c2 ec 86 3d
       -0.09168183 0.13668874 -0.14269651 0.06588127
0003e0 02 67 7a 3d 7e 59 83 3e 53 6f 3c be ce b8 5e bb
       0.061133392 0.25654215 -0.18401842 -0.0033984664
0003f0 52 ee 81 3e 37 4c b7 bd 4b 23 18 be cc 74 bf bd
       0.25377136 -0.08950084 -0.14857213 -0.09348449

layer3.bias f4 [4]
000000 99 0b a9 3e c7 88 af 3e f2 aa b4 3e 4f 6e ba 3e
       0.3301666 0.3428404 0.3528667 0.36412284
